[('',
  VisionTransformer(
  (conv_proj): Conv2d(3, 768, kernel_size=(32, 32), stride=(32, 32))
  (encoder): Encoder(
    (dropout): Dropout(p=0.0, inplace=False)
    (layers): Sequential(
      (encoder_layer_0): EncoderBlock(
        (ln_1): LayerNorm((768,), eps=1e-06, elementwise_affine=True)
        (self_attention): MultiheadAttention(
          (out_proj): NonDynamicallyQuantizableLinear(in_features=768, out_features=768, bias=True)
        )
        (dropout): Dropout(p=0.0, inplace=False)
        (ln_2): LayerNorm((768,), eps=1e-06, elementwise_affine=True)
        (mlp): MLPBlock(
          (0): Linear(in_features=768, out_features=3072, bias=True)
          (1): GELU(approximate='none')
          (2): Dropout(p=0.0, inplace=False)
          (3): Linear(in_features=3072, out_features=768, bias=True)
          (4): Dropout(p=0.0, inplace=False)
        )
      )
      (encoder_layer_1): EncoderBlock(
        (ln_1): LayerNorm((768,), eps=1e-06, elementwise_affine=True)
        (self_attention): MultiheadAttention(
          (out_proj): NonDynamicallyQuantizableLinear(in_features=768, out_features=768, bias=True)
        )
        (dropout): Dropout(p=0.0, inplace=False)
        (ln_2): LayerNorm((768,), eps=1e-06, elementwise_affine=True)
        (mlp): MLPBlock(
          (0): Linear(in_features=768, out_features=3072, bias=True)
          (1): GELU(approximate='none')
          (2): Dropout(p=0.0, inplace=False)
          (3): Linear(in_features=3072, out_features=768, bias=True)
          (4): Dropout(p=0.0, inplace=False)
        )
      )
      (encoder_layer_2): EncoderBlock(
        (ln_1): LayerNorm((768,), eps=1e-06, elementwise_affine=True)
        (self_attention): MultiheadAttention(
          (out_proj): NonDynamicallyQuantizableLinear(in_features=768, out_features=768, bias=True)
        )
        (dropout): Dropout(p=0.0, inplace=False)
        (ln_2): LayerNorm((768,), eps=1e-06, elementwise_affine=True)
        (mlp): MLPBlock(
          (0): Linear(in_features=768, out_features=3072, bias=True)
          (1): GELU(approximate='none')
          (2): Dropout(p=0.0, inplace=False)
          (3): Linear(in_features=3072, out_features=768, bias=True)
          (4): Dropout(p=0.0, inplace=False)
        )
      )
      (encoder_layer_3): EncoderBlock(
        (ln_1): LayerNorm((768,), eps=1e-06, elementwise_affine=True)
        (self_attention): MultiheadAttention(
          (out_proj): NonDynamicallyQuantizableLinear(in_features=768, out_features=768, bias=True)
        )
        (dropout): Dropout(p=0.0, inplace=False)
        (ln_2): LayerNorm((768,), eps=1e-06, elementwise_affine=True)
        (mlp): MLPBlock(
          (0): Linear(in_features=768, out_features=3072, bias=True)
          (1): GELU(approximate='none')
          (2): Dropout(p=0.0, inplace=False)
          (3): Linear(in_features=3072, out_features=768, bias=True)
          (4): Dropout(p=0.0, inplace=False)
        )
      )
      (encoder_layer_4): EncoderBlock(
        (ln_1): LayerNorm((768,), eps=1e-06, elementwise_affine=True)
        (self_attention): MultiheadAttention(
          (out_proj): NonDynamicallyQuantizableLinear(in_features=768, out_features=768, bias=True)
        )
        (dropout): Dropout(p=0.0, inplace=False)
        (ln_2): LayerNorm((768,), eps=1e-06, elementwise_affine=True)
        (mlp): MLPBlock(
          (0): Linear(in_features=768, out_features=3072, bias=True)
          (1): GELU(approximate='none')
          (2): Dropout(p=0.0, inplace=False)
          (3): Linear(in_features=3072, out_features=768, bias=True)
          (4): Dropout(p=0.0, inplace=False)
        )
      )
      (encoder_layer_5): EncoderBlock(
        (ln_1): LayerNorm((768,), eps=1e-06, elementwise_affine=True)
        (self_attention): MultiheadAttention(
          (out_proj): NonDynamicallyQuantizableLinear(in_features=768, out_features=768, bias=True)
        )
        (dropout): Dropout(p=0.0, inplace=False)
        (ln_2): LayerNorm((768,), eps=1e-06, elementwise_affine=True)
        (mlp): MLPBlock(
          (0): Linear(in_features=768, out_features=3072, bias=True)
          (1): GELU(approximate='none')
          (2): Dropout(p=0.0, inplace=False)
          (3): Linear(in_features=3072, out_features=768, bias=True)
          (4): Dropout(p=0.0, inplace=False)
        )
      )
      (encoder_layer_6): EncoderBlock(
        (ln_1): LayerNorm((768,), eps=1e-06, elementwise_affine=True)
        (self_attention): MultiheadAttention(
          (out_proj): NonDynamicallyQuantizableLinear(in_features=768, out_features=768, bias=True)
        )
        (dropout): Dropout(p=0.0, inplace=False)
        (ln_2): LayerNorm((768,), eps=1e-06, elementwise_affine=True)
        (mlp): MLPBlock(
          (0): Linear(in_features=768, out_features=3072, bias=True)
          (1): GELU(approximate='none')
          (2): Dropout(p=0.0, inplace=False)
          (3): Linear(in_features=3072, out_features=768, bias=True)
          (4): Dropout(p=0.0, inplace=False)
        )
      )
      (encoder_layer_7): EncoderBlock(
        (ln_1): LayerNorm((768,), eps=1e-06, elementwise_affine=True)
        (self_attention): MultiheadAttention(
          (out_proj): NonDynamicallyQuantizableLinear(in_features=768, out_features=768, bias=True)
        )
        (dropout): Dropout(p=0.0, inplace=False)
        (ln_2): LayerNorm((768,), eps=1e-06, elementwise_affine=True)
        (mlp): MLPBlock(
          (0): Linear(in_features=768, out_features=3072, bias=True)
          (1): GELU(approximate='none')
          (2): Dropout(p=0.0, inplace=False)
          (3): Linear(in_features=3072, out_features=768, bias=True)
          (4): Dropout(p=0.0, inplace=False)
        )
      )
      (encoder_layer_8): EncoderBlock(
        (ln_1): LayerNorm((768,), eps=1e-06, elementwise_affine=True)
        (self_attention): MultiheadAttention(
          (out_proj): NonDynamicallyQuantizableLinear(in_features=768, out_features=768, bias=True)
        )
        (dropout): Dropout(p=0.0, inplace=False)
        (ln_2): LayerNorm((768,), eps=1e-06, elementwise_affine=True)
        (mlp): MLPBlock(
          (0): Linear(in_features=768, out_features=3072, bias=True)
          (1): GELU(approximate='none')
          (2): Dropout(p=0.0, inplace=False)
          (3): Linear(in_features=3072, out_features=768, bias=True)
          (4): Dropout(p=0.0, inplace=False)
        )
      )
      (encoder_layer_9): EncoderBlock(
        (ln_1): LayerNorm((768,), eps=1e-06, elementwise_affine=True)
        (self_attention): MultiheadAttention(
          (out_proj): NonDynamicallyQuantizableLinear(in_features=768, out_features=768, bias=True)
        )
        (dropout): Dropout(p=0.0, inplace=False)
        (ln_2): LayerNorm((768,), eps=1e-06, elementwise_affine=True)
        (mlp): MLPBlock(
          (0): Linear(in_features=768, out_features=3072, bias=True)
          (1): GELU(approximate='none')
          (2): Dropout(p=0.0, inplace=False)
          (3): Linear(in_features=3072, out_features=768, bias=True)
          (4): Dropout(p=0.0, inplace=False)
        )
      )
      (encoder_layer_10): EncoderBlock(
        (ln_1): LayerNorm((768,), eps=1e-06, elementwise_affine=True)
        (self_attention): MultiheadAttention(
          (out_proj): NonDynamicallyQuantizableLinear(in_features=768, out_features=768, bias=True)
        )
        (dropout): Dropout(p=0.0, inplace=False)
        (ln_2): LayerNorm((768,), eps=1e-06, elementwise_affine=True)
        (mlp): MLPBlock(
          (0): Linear(in_features=768, out_features=3072, bias=True)
          (1): GELU(approximate='none')
          (2): Dropout(p=0.0, inplace=False)
          (3): Linear(in_features=3072, out_features=768, bias=True)
          (4): Dropout(p=0.0, inplace=False)
        )
      )
      (encoder_layer_11): EncoderBlock(
        (ln_1): LayerNorm((768,), eps=1e-06, elementwise_affine=True)
        (self_attention): MultiheadAttention(
          (out_proj): NonDynamicallyQuantizableLinear(in_features=768, out_features=768, bias=True)
        )
        (dropout): Dropout(p=0.0, inplace=False)
        (ln_2): LayerNorm((768,), eps=1e-06, elementwise_affine=True)
        (mlp): MLPBlock(
          (0): Linear(in_features=768, out_features=3072, bias=True)
          (1): GELU(approximate='none')
          (2): Dropout(p=0.0, inplace=False)
          (3): Linear(in_features=3072, out_features=768, bias=True)
          (4): Dropout(p=0.0, inplace=False)
        )
      )
    )
    (ln): LayerNorm((768,), eps=1e-06, elementwise_affine=True)
  )
  (heads): Sequential(
    (head): Linear(in_features=768, out_features=1000, bias=True)
  )
)),
 ('conv_proj', Conv2d(3, 768, kernel_size=(32, 32), stride=(32, 32))),
 ('encoder',
  Encoder(
  (dropout): Dropout(p=0.0, inplace=False)
  (layers): Sequential(
    (encoder_layer_0): EncoderBlock(
      (ln_1): LayerNorm((768,), eps=1e-06, elementwise_affine=True)
      (self_attention): MultiheadAttention(
        (out_proj): NonDynamicallyQuantizableLinear(in_features=768, out_features=768, bias=True)
      )
      (dropout): Dropout(p=0.0, inplace=False)
      (ln_2): LayerNorm((768,), eps=1e-06, elementwise_affine=True)
      (mlp): MLPBlock(
        (0): Linear(in_features=768, out_features=3072, bias=True)
        (1): GELU(approximate='none')
        (2): Dropout(p=0.0, inplace=False)
        (3): Linear(in_features=3072, out_features=768, bias=True)
        (4): Dropout(p=0.0, inplace=False)
      )
    )
    (encoder_layer_1): EncoderBlock(
      (ln_1): LayerNorm((768,), eps=1e-06, elementwise_affine=True)
      (self_attention): MultiheadAttention(
        (out_proj): NonDynamicallyQuantizableLinear(in_features=768, out_features=768, bias=True)
      )
      (dropout): Dropout(p=0.0, inplace=False)
      (ln_2): LayerNorm((768,), eps=1e-06, elementwise_affine=True)
      (mlp): MLPBlock(
        (0): Linear(in_features=768, out_features=3072, bias=True)
        (1): GELU(approximate='none')
        (2): Dropout(p=0.0, inplace=False)
        (3): Linear(in_features=3072, out_features=768, bias=True)
        (4): Dropout(p=0.0, inplace=False)
      )
    )
    (encoder_layer_2): EncoderBlock(
      (ln_1): LayerNorm((768,), eps=1e-06, elementwise_affine=True)
      (self_attention): MultiheadAttention(
        (out_proj): NonDynamicallyQuantizableLinear(in_features=768, out_features=768, bias=True)
      )
      (dropout): Dropout(p=0.0, inplace=False)
      (ln_2): LayerNorm((768,), eps=1e-06, elementwise_affine=True)
      (mlp): MLPBlock(
        (0): Linear(in_features=768, out_features=3072, bias=True)
        (1): GELU(approximate='none')
        (2): Dropout(p=0.0, inplace=False)
        (3): Linear(in_features=3072, out_features=768, bias=True)
        (4): Dropout(p=0.0, inplace=False)
      )
    )
    (encoder_layer_3): EncoderBlock(
      (ln_1): LayerNorm((768,), eps=1e-06, elementwise_affine=True)
      (self_attention): MultiheadAttention(
        (out_proj): NonDynamicallyQuantizableLinear(in_features=768, out_features=768, bias=True)
      )
      (dropout): Dropout(p=0.0, inplace=False)
      (ln_2): LayerNorm((768,), eps=1e-06, elementwise_affine=True)
      (mlp): MLPBlock(
        (0): Linear(in_features=768, out_features=3072, bias=True)
        (1): GELU(approximate='none')
        (2): Dropout(p=0.0, inplace=False)
        (3): Linear(in_features=3072, out_features=768, bias=True)
        (4): Dropout(p=0.0, inplace=False)
      )
    )
    (encoder_layer_4): EncoderBlock(
      (ln_1): LayerNorm((768,), eps=1e-06, elementwise_affine=True)
      (self_attention): MultiheadAttention(
        (out_proj): NonDynamicallyQuantizableLinear(in_features=768, out_features=768, bias=True)
      )
      (dropout): Dropout(p=0.0, inplace=False)
      (ln_2): LayerNorm((768,), eps=1e-06, elementwise_affine=True)
      (mlp): MLPBlock(
        (0): Linear(in_features=768, out_features=3072, bias=True)
        (1): GELU(approximate='none')
        (2): Dropout(p=0.0, inplace=False)
        (3): Linear(in_features=3072, out_features=768, bias=True)
        (4): Dropout(p=0.0, inplace=False)
      )
    )
    (encoder_layer_5): EncoderBlock(
      (ln_1): LayerNorm((768,), eps=1e-06, elementwise_affine=True)
      (self_attention): MultiheadAttention(
        (out_proj): NonDynamicallyQuantizableLinear(in_features=768, out_features=768, bias=True)
      )
      (dropout): Dropout(p=0.0, inplace=False)
      (ln_2): LayerNorm((768,), eps=1e-06, elementwise_affine=True)
      (mlp): MLPBlock(
        (0): Linear(in_features=768, out_features=3072, bias=True)
        (1): GELU(approximate='none')
        (2): Dropout(p=0.0, inplace=False)
        (3): Linear(in_features=3072, out_features=768, bias=True)
        (4): Dropout(p=0.0, inplace=False)
      )
    )
    (encoder_layer_6): EncoderBlock(
      (ln_1): LayerNorm((768,), eps=1e-06, elementwise_affine=True)
      (self_attention): MultiheadAttention(
        (out_proj): NonDynamicallyQuantizableLinear(in_features=768, out_features=768, bias=True)
      )
      (dropout): Dropout(p=0.0, inplace=False)
      (ln_2): LayerNorm((768,), eps=1e-06, elementwise_affine=True)
      (mlp): MLPBlock(
        (0): Linear(in_features=768, out_features=3072, bias=True)
        (1): GELU(approximate='none')
        (2): Dropout(p=0.0, inplace=False)
        (3): Linear(in_features=3072, out_features=768, bias=True)
        (4): Dropout(p=0.0, inplace=False)
      )
    )
    (encoder_layer_7): EncoderBlock(
      (ln_1): LayerNorm((768,), eps=1e-06, elementwise_affine=True)
      (self_attention): MultiheadAttention(
        (out_proj): NonDynamicallyQuantizableLinear(in_features=768, out_features=768, bias=True)
      )
      (dropout): Dropout(p=0.0, inplace=False)
      (ln_2): LayerNorm((768,), eps=1e-06, elementwise_affine=True)
      (mlp): MLPBlock(
        (0): Linear(in_features=768, out_features=3072, bias=True)
        (1): GELU(approximate='none')
        (2): Dropout(p=0.0, inplace=False)
        (3): Linear(in_features=3072, out_features=768, bias=True)
        (4): Dropout(p=0.0, inplace=False)
      )
    )
    (encoder_layer_8): EncoderBlock(
      (ln_1): LayerNorm((768,), eps=1e-06, elementwise_affine=True)
      (self_attention): MultiheadAttention(
        (out_proj): NonDynamicallyQuantizableLinear(in_features=768, out_features=768, bias=True)
      )
      (dropout): Dropout(p=0.0, inplace=False)
      (ln_2): LayerNorm((768,), eps=1e-06, elementwise_affine=True)
      (mlp): MLPBlock(
        (0): Linear(in_features=768, out_features=3072, bias=True)
        (1): GELU(approximate='none')
        (2): Dropout(p=0.0, inplace=False)
        (3): Linear(in_features=3072, out_features=768, bias=True)
        (4): Dropout(p=0.0, inplace=False)
      )
    )
    (encoder_layer_9): EncoderBlock(
      (ln_1): LayerNorm((768,), eps=1e-06, elementwise_affine=True)
      (self_attention): MultiheadAttention(
        (out_proj): NonDynamicallyQuantizableLinear(in_features=768, out_features=768, bias=True)
      )
      (dropout): Dropout(p=0.0, inplace=False)
      (ln_2): LayerNorm((768,), eps=1e-06, elementwise_affine=True)
      (mlp): MLPBlock(
        (0): Linear(in_features=768, out_features=3072, bias=True)
        (1): GELU(approximate='none')
        (2): Dropout(p=0.0, inplace=False)
        (3): Linear(in_features=3072, out_features=768, bias=True)
        (4): Dropout(p=0.0, inplace=False)
      )
    )
    (encoder_layer_10): EncoderBlock(
      (ln_1): LayerNorm((768,), eps=1e-06, elementwise_affine=True)
      (self_attention): MultiheadAttention(
        (out_proj): NonDynamicallyQuantizableLinear(in_features=768, out_features=768, bias=True)
      )
      (dropout): Dropout(p=0.0, inplace=False)
      (ln_2): LayerNorm((768,), eps=1e-06, elementwise_affine=True)
      (mlp): MLPBlock(
        (0): Linear(in_features=768, out_features=3072, bias=True)
        (1): GELU(approximate='none')
        (2): Dropout(p=0.0, inplace=False)
        (3): Linear(in_features=3072, out_features=768, bias=True)
        (4): Dropout(p=0.0, inplace=False)
      )
    )
    (encoder_layer_11): EncoderBlock(
      (ln_1): LayerNorm((768,), eps=1e-06, elementwise_affine=True)
      (self_attention): MultiheadAttention(
        (out_proj): NonDynamicallyQuantizableLinear(in_features=768, out_features=768, bias=True)
      )
      (dropout): Dropout(p=0.0, inplace=False)
      (ln_2): LayerNorm((768,), eps=1e-06, elementwise_affine=True)
      (mlp): MLPBlock(
        (0): Linear(in_features=768, out_features=3072, bias=True)
        (1): GELU(approximate='none')
        (2): Dropout(p=0.0, inplace=False)
        (3): Linear(in_features=3072, out_features=768, bias=True)
        (4): Dropout(p=0.0, inplace=False)
      )
    )
  )
  (ln): LayerNorm((768,), eps=1e-06, elementwise_affine=True)
)),
 ('encoder.dropout', Dropout(p=0.0, inplace=False)),
 ('encoder.layers',
  Sequential(
  (encoder_layer_0): EncoderBlock(
    (ln_1): LayerNorm((768,), eps=1e-06, elementwise_affine=True)
    (self_attention): MultiheadAttention(
      (out_proj): NonDynamicallyQuantizableLinear(in_features=768, out_features=768, bias=True)
    )
    (dropout): Dropout(p=0.0, inplace=False)
    (ln_2): LayerNorm((768,), eps=1e-06, elementwise_affine=True)
    (mlp): MLPBlock(
      (0): Linear(in_features=768, out_features=3072, bias=True)
      (1): GELU(approximate='none')
      (2): Dropout(p=0.0, inplace=False)
      (3): Linear(in_features=3072, out_features=768, bias=True)
      (4): Dropout(p=0.0, inplace=False)
    )
  )
  (encoder_layer_1): EncoderBlock(
    (ln_1): LayerNorm((768,), eps=1e-06, elementwise_affine=True)
    (self_attention): MultiheadAttention(
      (out_proj): NonDynamicallyQuantizableLinear(in_features=768, out_features=768, bias=True)
    )
    (dropout): Dropout(p=0.0, inplace=False)
    (ln_2): LayerNorm((768,), eps=1e-06, elementwise_affine=True)
    (mlp): MLPBlock(
      (0): Linear(in_features=768, out_features=3072, bias=True)
      (1): GELU(approximate='none')
      (2): Dropout(p=0.0, inplace=False)
      (3): Linear(in_features=3072, out_features=768, bias=True)
      (4): Dropout(p=0.0, inplace=False)
    )
  )
  (encoder_layer_2): EncoderBlock(
    (ln_1): LayerNorm((768,), eps=1e-06, elementwise_affine=True)
    (self_attention): MultiheadAttention(
      (out_proj): NonDynamicallyQuantizableLinear(in_features=768, out_features=768, bias=True)
    )
    (dropout): Dropout(p=0.0, inplace=False)
    (ln_2): LayerNorm((768,), eps=1e-06, elementwise_affine=True)
    (mlp): MLPBlock(
      (0): Linear(in_features=768, out_features=3072, bias=True)
      (1): GELU(approximate='none')
      (2): Dropout(p=0.0, inplace=False)
      (3): Linear(in_features=3072, out_features=768, bias=True)
      (4): Dropout(p=0.0, inplace=False)
    )
  )
  (encoder_layer_3): EncoderBlock(
    (ln_1): LayerNorm((768,), eps=1e-06, elementwise_affine=True)
    (self_attention): MultiheadAttention(
      (out_proj): NonDynamicallyQuantizableLinear(in_features=768, out_features=768, bias=True)
    )
    (dropout): Dropout(p=0.0, inplace=False)
    (ln_2): LayerNorm((768,), eps=1e-06, elementwise_affine=True)
    (mlp): MLPBlock(
      (0): Linear(in_features=768, out_features=3072, bias=True)
      (1): GELU(approximate='none')
      (2): Dropout(p=0.0, inplace=False)
      (3): Linear(in_features=3072, out_features=768, bias=True)
      (4): Dropout(p=0.0, inplace=False)
    )
  )
  (encoder_layer_4): EncoderBlock(
    (ln_1): LayerNorm((768,), eps=1e-06, elementwise_affine=True)
    (self_attention): MultiheadAttention(
      (out_proj): NonDynamicallyQuantizableLinear(in_features=768, out_features=768, bias=True)
    )
    (dropout): Dropout(p=0.0, inplace=False)
    (ln_2): LayerNorm((768,), eps=1e-06, elementwise_affine=True)
    (mlp): MLPBlock(
      (0): Linear(in_features=768, out_features=3072, bias=True)
      (1): GELU(approximate='none')
      (2): Dropout(p=0.0, inplace=False)
      (3): Linear(in_features=3072, out_features=768, bias=True)
      (4): Dropout(p=0.0, inplace=False)
    )
  )
  (encoder_layer_5): EncoderBlock(
    (ln_1): LayerNorm((768,), eps=1e-06, elementwise_affine=True)
    (self_attention): MultiheadAttention(
      (out_proj): NonDynamicallyQuantizableLinear(in_features=768, out_features=768, bias=True)
    )
    (dropout): Dropout(p=0.0, inplace=False)
    (ln_2): LayerNorm((768,), eps=1e-06, elementwise_affine=True)
    (mlp): MLPBlock(
      (0): Linear(in_features=768, out_features=3072, bias=True)
      (1): GELU(approximate='none')
      (2): Dropout(p=0.0, inplace=False)
      (3): Linear(in_features=3072, out_features=768, bias=True)
      (4): Dropout(p=0.0, inplace=False)
    )
  )
  (encoder_layer_6): EncoderBlock(
    (ln_1): LayerNorm((768,), eps=1e-06, elementwise_affine=True)
    (self_attention): MultiheadAttention(
      (out_proj): NonDynamicallyQuantizableLinear(in_features=768, out_features=768, bias=True)
    )
    (dropout): Dropout(p=0.0, inplace=False)
    (ln_2): LayerNorm((768,), eps=1e-06, elementwise_affine=True)
    (mlp): MLPBlock(
      (0): Linear(in_features=768, out_features=3072, bias=True)
      (1): GELU(approximate='none')
      (2): Dropout(p=0.0, inplace=False)
      (3): Linear(in_features=3072, out_features=768, bias=True)
      (4): Dropout(p=0.0, inplace=False)
    )
  )
  (encoder_layer_7): EncoderBlock(
    (ln_1): LayerNorm((768,), eps=1e-06, elementwise_affine=True)
    (self_attention): MultiheadAttention(
      (out_proj): NonDynamicallyQuantizableLinear(in_features=768, out_features=768, bias=True)
    )
    (dropout): Dropout(p=0.0, inplace=False)
    (ln_2): LayerNorm((768,), eps=1e-06, elementwise_affine=True)
    (mlp): MLPBlock(
      (0): Linear(in_features=768, out_features=3072, bias=True)
      (1): GELU(approximate='none')
      (2): Dropout(p=0.0, inplace=False)
      (3): Linear(in_features=3072, out_features=768, bias=True)
      (4): Dropout(p=0.0, inplace=False)
    )
  )
  (encoder_layer_8): EncoderBlock(
    (ln_1): LayerNorm((768,), eps=1e-06, elementwise_affine=True)
    (self_attention): MultiheadAttention(
      (out_proj): NonDynamicallyQuantizableLinear(in_features=768, out_features=768, bias=True)
    )
    (dropout): Dropout(p=0.0, inplace=False)
    (ln_2): LayerNorm((768,), eps=1e-06, elementwise_affine=True)
    (mlp): MLPBlock(
      (0): Linear(in_features=768, out_features=3072, bias=True)
      (1): GELU(approximate='none')
      (2): Dropout(p=0.0, inplace=False)
      (3): Linear(in_features=3072, out_features=768, bias=True)
      (4): Dropout(p=0.0, inplace=False)
    )
  )
  (encoder_layer_9): EncoderBlock(
    (ln_1): LayerNorm((768,), eps=1e-06, elementwise_affine=True)
    (self_attention): MultiheadAttention(
      (out_proj): NonDynamicallyQuantizableLinear(in_features=768, out_features=768, bias=True)
    )
    (dropout): Dropout(p=0.0, inplace=False)
    (ln_2): LayerNorm((768,), eps=1e-06, elementwise_affine=True)
    (mlp): MLPBlock(
      (0): Linear(in_features=768, out_features=3072, bias=True)
      (1): GELU(approximate='none')
      (2): Dropout(p=0.0, inplace=False)
      (3): Linear(in_features=3072, out_features=768, bias=True)
      (4): Dropout(p=0.0, inplace=False)
    )
  )
  (encoder_layer_10): EncoderBlock(
    (ln_1): LayerNorm((768,), eps=1e-06, elementwise_affine=True)
    (self_attention): MultiheadAttention(
      (out_proj): NonDynamicallyQuantizableLinear(in_features=768, out_features=768, bias=True)
    )
    (dropout): Dropout(p=0.0, inplace=False)
    (ln_2): LayerNorm((768,), eps=1e-06, elementwise_affine=True)
    (mlp): MLPBlock(
      (0): Linear(in_features=768, out_features=3072, bias=True)
      (1): GELU(approximate='none')
      (2): Dropout(p=0.0, inplace=False)
      (3): Linear(in_features=3072, out_features=768, bias=True)
      (4): Dropout(p=0.0, inplace=False)
    )
  )
  (encoder_layer_11): EncoderBlock(
    (ln_1): LayerNorm((768,), eps=1e-06, elementwise_affine=True)
    (self_attention): MultiheadAttention(
      (out_proj): NonDynamicallyQuantizableLinear(in_features=768, out_features=768, bias=True)
    )
    (dropout): Dropout(p=0.0, inplace=False)
    (ln_2): LayerNorm((768,), eps=1e-06, elementwise_affine=True)
    (mlp): MLPBlock(
      (0): Linear(in_features=768, out_features=3072, bias=True)
      (1): GELU(approximate='none')
      (2): Dropout(p=0.0, inplace=False)
      (3): Linear(in_features=3072, out_features=768, bias=True)
      (4): Dropout(p=0.0, inplace=False)
    )
  )
)),
 ('encoder.layers.encoder_layer_0',
  EncoderBlock(
  (ln_1): LayerNorm((768,), eps=1e-06, elementwise_affine=True)
  (self_attention): MultiheadAttention(
    (out_proj): NonDynamicallyQuantizableLinear(in_features=768, out_features=768, bias=True)
  )
  (dropout): Dropout(p=0.0, inplace=False)
  (ln_2): LayerNorm((768,), eps=1e-06, elementwise_affine=True)
  (mlp): MLPBlock(
    (0): Linear(in_features=768, out_features=3072, bias=True)
    (1): GELU(approximate='none')
    (2): Dropout(p=0.0, inplace=False)
    (3): Linear(in_features=3072, out_features=768, bias=True)
    (4): Dropout(p=0.0, inplace=False)
  )
)),
 ('encoder.layers.encoder_layer_0.ln_1',
  LayerNorm((768,), eps=1e-06, elementwise_affine=True)),
 ('encoder.layers.encoder_layer_0.self_attention',
  MultiheadAttention(
  (out_proj): NonDynamicallyQuantizableLinear(in_features=768, out_features=768, bias=True)
)),
 ('encoder.layers.encoder_layer_0.self_attention.out_proj',
  NonDynamicallyQuantizableLinear(in_features=768, out_features=768, bias=True)),
 ('encoder.layers.encoder_layer_0.dropout', Dropout(p=0.0, inplace=False)),
 ('encoder.layers.encoder_layer_0.ln_2',
  LayerNorm((768,), eps=1e-06, elementwise_affine=True)),
 ('encoder.layers.encoder_layer_0.mlp',
  MLPBlock(
  (0): Linear(in_features=768, out_features=3072, bias=True)
  (1): GELU(approximate='none')
  (2): Dropout(p=0.0, inplace=False)
  (3): Linear(in_features=3072, out_features=768, bias=True)
  (4): Dropout(p=0.0, inplace=False)
)),
 ('encoder.layers.encoder_layer_0.mlp.0',
  Linear(in_features=768, out_features=3072, bias=True)),
 ('encoder.layers.encoder_layer_0.mlp.1', GELU(approximate='none')),
 ('encoder.layers.encoder_layer_0.mlp.2', Dropout(p=0.0, inplace=False)),
 ('encoder.layers.encoder_layer_0.mlp.3',
  Linear(in_features=3072, out_features=768, bias=True)),
 ('encoder.layers.encoder_layer_0.mlp.4', Dropout(p=0.0, inplace=False)),
 ('encoder.layers.encoder_layer_1',
  EncoderBlock(
  (ln_1): LayerNorm((768,), eps=1e-06, elementwise_affine=True)
  (self_attention): MultiheadAttention(
    (out_proj): NonDynamicallyQuantizableLinear(in_features=768, out_features=768, bias=True)
  )
  (dropout): Dropout(p=0.0, inplace=False)
  (ln_2): LayerNorm((768,), eps=1e-06, elementwise_affine=True)
  (mlp): MLPBlock(
    (0): Linear(in_features=768, out_features=3072, bias=True)
    (1): GELU(approximate='none')
    (2): Dropout(p=0.0, inplace=False)
    (3): Linear(in_features=3072, out_features=768, bias=True)
    (4): Dropout(p=0.0, inplace=False)
  )
)),
 ('encoder.layers.encoder_layer_1.ln_1',
  LayerNorm((768,), eps=1e-06, elementwise_affine=True)),
 ('encoder.layers.encoder_layer_1.self_attention',
  MultiheadAttention(
  (out_proj): NonDynamicallyQuantizableLinear(in_features=768, out_features=768, bias=True)
)),
 ('encoder.layers.encoder_layer_1.self_attention.out_proj',
  NonDynamicallyQuantizableLinear(in_features=768, out_features=768, bias=True)),
 ('encoder.layers.encoder_layer_1.dropout', Dropout(p=0.0, inplace=False)),
 ('encoder.layers.encoder_layer_1.ln_2',
  LayerNorm((768,), eps=1e-06, elementwise_affine=True)),
 ('encoder.layers.encoder_layer_1.mlp',
  MLPBlock(
  (0): Linear(in_features=768, out_features=3072, bias=True)
  (1): GELU(approximate='none')
  (2): Dropout(p=0.0, inplace=False)
  (3): Linear(in_features=3072, out_features=768, bias=True)
  (4): Dropout(p=0.0, inplace=False)
)),
 ('encoder.layers.encoder_layer_1.mlp.0',
  Linear(in_features=768, out_features=3072, bias=True)),
 ('encoder.layers.encoder_layer_1.mlp.1', GELU(approximate='none')),
 ('encoder.layers.encoder_layer_1.mlp.2', Dropout(p=0.0, inplace=False)),
 ('encoder.layers.encoder_layer_1.mlp.3',
  Linear(in_features=3072, out_features=768, bias=True)),
 ('encoder.layers.encoder_layer_1.mlp.4', Dropout(p=0.0, inplace=False)),
 ('encoder.layers.encoder_layer_2',
  EncoderBlock(
  (ln_1): LayerNorm((768,), eps=1e-06, elementwise_affine=True)
  (self_attention): MultiheadAttention(
    (out_proj): NonDynamicallyQuantizableLinear(in_features=768, out_features=768, bias=True)
  )
  (dropout): Dropout(p=0.0, inplace=False)
  (ln_2): LayerNorm((768,), eps=1e-06, elementwise_affine=True)
  (mlp): MLPBlock(
    (0): Linear(in_features=768, out_features=3072, bias=True)
    (1): GELU(approximate='none')
    (2): Dropout(p=0.0, inplace=False)
    (3): Linear(in_features=3072, out_features=768, bias=True)
    (4): Dropout(p=0.0, inplace=False)
  )
)),
 ('encoder.layers.encoder_layer_2.ln_1',
  LayerNorm((768,), eps=1e-06, elementwise_affine=True)),
 ('encoder.layers.encoder_layer_2.self_attention',
  MultiheadAttention(
  (out_proj): NonDynamicallyQuantizableLinear(in_features=768, out_features=768, bias=True)
)),
 ('encoder.layers.encoder_layer_2.self_attention.out_proj',
  NonDynamicallyQuantizableLinear(in_features=768, out_features=768, bias=True)),
 ('encoder.layers.encoder_layer_2.dropout', Dropout(p=0.0, inplace=False)),
 ('encoder.layers.encoder_layer_2.ln_2',
  LayerNorm((768,), eps=1e-06, elementwise_affine=True)),
 ('encoder.layers.encoder_layer_2.mlp',
  MLPBlock(
  (0): Linear(in_features=768, out_features=3072, bias=True)
  (1): GELU(approximate='none')
  (2): Dropout(p=0.0, inplace=False)
  (3): Linear(in_features=3072, out_features=768, bias=True)
  (4): Dropout(p=0.0, inplace=False)
)),
 ('encoder.layers.encoder_layer_2.mlp.0',
  Linear(in_features=768, out_features=3072, bias=True)),
 ('encoder.layers.encoder_layer_2.mlp.1', GELU(approximate='none')),
 ('encoder.layers.encoder_layer_2.mlp.2', Dropout(p=0.0, inplace=False)),
 ('encoder.layers.encoder_layer_2.mlp.3',
  Linear(in_features=3072, out_features=768, bias=True)),
 ('encoder.layers.encoder_layer_2.mlp.4', Dropout(p=0.0, inplace=False)),
 ('encoder.layers.encoder_layer_3',
  EncoderBlock(
  (ln_1): LayerNorm((768,), eps=1e-06, elementwise_affine=True)
  (self_attention): MultiheadAttention(
    (out_proj): NonDynamicallyQuantizableLinear(in_features=768, out_features=768, bias=True)
  )
  (dropout): Dropout(p=0.0, inplace=False)
  (ln_2): LayerNorm((768,), eps=1e-06, elementwise_affine=True)
  (mlp): MLPBlock(
    (0): Linear(in_features=768, out_features=3072, bias=True)
    (1): GELU(approximate='none')
    (2): Dropout(p=0.0, inplace=False)
    (3): Linear(in_features=3072, out_features=768, bias=True)
    (4): Dropout(p=0.0, inplace=False)
  )
)),
 ('encoder.layers.encoder_layer_3.ln_1',
  LayerNorm((768,), eps=1e-06, elementwise_affine=True)),
 ('encoder.layers.encoder_layer_3.self_attention',
  MultiheadAttention(
  (out_proj): NonDynamicallyQuantizableLinear(in_features=768, out_features=768, bias=True)
)),
 ('encoder.layers.encoder_layer_3.self_attention.out_proj',
  NonDynamicallyQuantizableLinear(in_features=768, out_features=768, bias=True)),
 ('encoder.layers.encoder_layer_3.dropout', Dropout(p=0.0, inplace=False)),
 ('encoder.layers.encoder_layer_3.ln_2',
  LayerNorm((768,), eps=1e-06, elementwise_affine=True)),
 ('encoder.layers.encoder_layer_3.mlp',
  MLPBlock(
  (0): Linear(in_features=768, out_features=3072, bias=True)
  (1): GELU(approximate='none')
  (2): Dropout(p=0.0, inplace=False)
  (3): Linear(in_features=3072, out_features=768, bias=True)
  (4): Dropout(p=0.0, inplace=False)
)),
 ('encoder.layers.encoder_layer_3.mlp.0',
  Linear(in_features=768, out_features=3072, bias=True)),
 ('encoder.layers.encoder_layer_3.mlp.1', GELU(approximate='none')),
 ('encoder.layers.encoder_layer_3.mlp.2', Dropout(p=0.0, inplace=False)),
 ('encoder.layers.encoder_layer_3.mlp.3',
  Linear(in_features=3072, out_features=768, bias=True)),
 ('encoder.layers.encoder_layer_3.mlp.4', Dropout(p=0.0, inplace=False)),
 ('encoder.layers.encoder_layer_4',
  EncoderBlock(
  (ln_1): LayerNorm((768,), eps=1e-06, elementwise_affine=True)
  (self_attention): MultiheadAttention(
    (out_proj): NonDynamicallyQuantizableLinear(in_features=768, out_features=768, bias=True)
  )
  (dropout): Dropout(p=0.0, inplace=False)
  (ln_2): LayerNorm((768,), eps=1e-06, elementwise_affine=True)
  (mlp): MLPBlock(
    (0): Linear(in_features=768, out_features=3072, bias=True)
    (1): GELU(approximate='none')
    (2): Dropout(p=0.0, inplace=False)
    (3): Linear(in_features=3072, out_features=768, bias=True)
    (4): Dropout(p=0.0, inplace=False)
  )
)),
 ('encoder.layers.encoder_layer_4.ln_1',
  LayerNorm((768,), eps=1e-06, elementwise_affine=True)),
 ('encoder.layers.encoder_layer_4.self_attention',
  MultiheadAttention(
  (out_proj): NonDynamicallyQuantizableLinear(in_features=768, out_features=768, bias=True)
)),
 ('encoder.layers.encoder_layer_4.self_attention.out_proj',
  NonDynamicallyQuantizableLinear(in_features=768, out_features=768, bias=True)),
 ('encoder.layers.encoder_layer_4.dropout', Dropout(p=0.0, inplace=False)),
 ('encoder.layers.encoder_layer_4.ln_2',
  LayerNorm((768,), eps=1e-06, elementwise_affine=True)),
 ('encoder.layers.encoder_layer_4.mlp',
  MLPBlock(
  (0): Linear(in_features=768, out_features=3072, bias=True)
  (1): GELU(approximate='none')
  (2): Dropout(p=0.0, inplace=False)
  (3): Linear(in_features=3072, out_features=768, bias=True)
  (4): Dropout(p=0.0, inplace=False)
)),
 ('encoder.layers.encoder_layer_4.mlp.0',
  Linear(in_features=768, out_features=3072, bias=True)),
 ('encoder.layers.encoder_layer_4.mlp.1', GELU(approximate='none')),
 ('encoder.layers.encoder_layer_4.mlp.2', Dropout(p=0.0, inplace=False)),
 ('encoder.layers.encoder_layer_4.mlp.3',
  Linear(in_features=3072, out_features=768, bias=True)),
 ('encoder.layers.encoder_layer_4.mlp.4', Dropout(p=0.0, inplace=False)),
 ('encoder.layers.encoder_layer_5',
  EncoderBlock(
  (ln_1): LayerNorm((768,), eps=1e-06, elementwise_affine=True)
  (self_attention): MultiheadAttention(
    (out_proj): NonDynamicallyQuantizableLinear(in_features=768, out_features=768, bias=True)
  )
  (dropout): Dropout(p=0.0, inplace=False)
  (ln_2): LayerNorm((768,), eps=1e-06, elementwise_affine=True)
  (mlp): MLPBlock(
    (0): Linear(in_features=768, out_features=3072, bias=True)
    (1): GELU(approximate='none')
    (2): Dropout(p=0.0, inplace=False)
    (3): Linear(in_features=3072, out_features=768, bias=True)
    (4): Dropout(p=0.0, inplace=False)
  )
)),
 ('encoder.layers.encoder_layer_5.ln_1',
  LayerNorm((768,), eps=1e-06, elementwise_affine=True)),
 ('encoder.layers.encoder_layer_5.self_attention',
  MultiheadAttention(
  (out_proj): NonDynamicallyQuantizableLinear(in_features=768, out_features=768, bias=True)
)),
 ('encoder.layers.encoder_layer_5.self_attention.out_proj',
  NonDynamicallyQuantizableLinear(in_features=768, out_features=768, bias=True)),
 ('encoder.layers.encoder_layer_5.dropout', Dropout(p=0.0, inplace=False)),
 ('encoder.layers.encoder_layer_5.ln_2',
  LayerNorm((768,), eps=1e-06, elementwise_affine=True)),
 ('encoder.layers.encoder_layer_5.mlp',
  MLPBlock(
  (0): Linear(in_features=768, out_features=3072, bias=True)
  (1): GELU(approximate='none')
  (2): Dropout(p=0.0, inplace=False)
  (3): Linear(in_features=3072, out_features=768, bias=True)
  (4): Dropout(p=0.0, inplace=False)
)),
 ('encoder.layers.encoder_layer_5.mlp.0',
  Linear(in_features=768, out_features=3072, bias=True)),
 ('encoder.layers.encoder_layer_5.mlp.1', GELU(approximate='none')),
 ('encoder.layers.encoder_layer_5.mlp.2', Dropout(p=0.0, inplace=False)),
 ('encoder.layers.encoder_layer_5.mlp.3',
  Linear(in_features=3072, out_features=768, bias=True)),
 ('encoder.layers.encoder_layer_5.mlp.4', Dropout(p=0.0, inplace=False)),
 ('encoder.layers.encoder_layer_6',
  EncoderBlock(
  (ln_1): LayerNorm((768,), eps=1e-06, elementwise_affine=True)
  (self_attention): MultiheadAttention(
    (out_proj): NonDynamicallyQuantizableLinear(in_features=768, out_features=768, bias=True)
  )
  (dropout): Dropout(p=0.0, inplace=False)
  (ln_2): LayerNorm((768,), eps=1e-06, elementwise_affine=True)
  (mlp): MLPBlock(
    (0): Linear(in_features=768, out_features=3072, bias=True)
    (1): GELU(approximate='none')
    (2): Dropout(p=0.0, inplace=False)
    (3): Linear(in_features=3072, out_features=768, bias=True)
    (4): Dropout(p=0.0, inplace=False)
  )
)),
 ('encoder.layers.encoder_layer_6.ln_1',
  LayerNorm((768,), eps=1e-06, elementwise_affine=True)),
 ('encoder.layers.encoder_layer_6.self_attention',
  MultiheadAttention(
  (out_proj): NonDynamicallyQuantizableLinear(in_features=768, out_features=768, bias=True)
)),
 ('encoder.layers.encoder_layer_6.self_attention.out_proj',
  NonDynamicallyQuantizableLinear(in_features=768, out_features=768, bias=True)),
 ('encoder.layers.encoder_layer_6.dropout', Dropout(p=0.0, inplace=False)),
 ('encoder.layers.encoder_layer_6.ln_2',
  LayerNorm((768,), eps=1e-06, elementwise_affine=True)),
 ('encoder.layers.encoder_layer_6.mlp',
  MLPBlock(
  (0): Linear(in_features=768, out_features=3072, bias=True)
  (1): GELU(approximate='none')
  (2): Dropout(p=0.0, inplace=False)
  (3): Linear(in_features=3072, out_features=768, bias=True)
  (4): Dropout(p=0.0, inplace=False)
)),
 ('encoder.layers.encoder_layer_6.mlp.0',
  Linear(in_features=768, out_features=3072, bias=True)),
 ('encoder.layers.encoder_layer_6.mlp.1', GELU(approximate='none')),
 ('encoder.layers.encoder_layer_6.mlp.2', Dropout(p=0.0, inplace=False)),
 ('encoder.layers.encoder_layer_6.mlp.3',
  Linear(in_features=3072, out_features=768, bias=True)),
 ('encoder.layers.encoder_layer_6.mlp.4', Dropout(p=0.0, inplace=False)),
 ('encoder.layers.encoder_layer_7',
  EncoderBlock(
  (ln_1): LayerNorm((768,), eps=1e-06, elementwise_affine=True)
  (self_attention): MultiheadAttention(
    (out_proj): NonDynamicallyQuantizableLinear(in_features=768, out_features=768, bias=True)
  )
  (dropout): Dropout(p=0.0, inplace=False)
  (ln_2): LayerNorm((768,), eps=1e-06, elementwise_affine=True)
  (mlp): MLPBlock(
    (0): Linear(in_features=768, out_features=3072, bias=True)
    (1): GELU(approximate='none')
    (2): Dropout(p=0.0, inplace=False)
    (3): Linear(in_features=3072, out_features=768, bias=True)
    (4): Dropout(p=0.0, inplace=False)
  )
)),
 ('encoder.layers.encoder_layer_7.ln_1',
  LayerNorm((768,), eps=1e-06, elementwise_affine=True)),
 ('encoder.layers.encoder_layer_7.self_attention',
  MultiheadAttention(
  (out_proj): NonDynamicallyQuantizableLinear(in_features=768, out_features=768, bias=True)
)),
 ('encoder.layers.encoder_layer_7.self_attention.out_proj',
  NonDynamicallyQuantizableLinear(in_features=768, out_features=768, bias=True)),
 ('encoder.layers.encoder_layer_7.dropout', Dropout(p=0.0, inplace=False)),
 ('encoder.layers.encoder_layer_7.ln_2',
  LayerNorm((768,), eps=1e-06, elementwise_affine=True)),
 ('encoder.layers.encoder_layer_7.mlp',
  MLPBlock(
  (0): Linear(in_features=768, out_features=3072, bias=True)
  (1): GELU(approximate='none')
  (2): Dropout(p=0.0, inplace=False)
  (3): Linear(in_features=3072, out_features=768, bias=True)
  (4): Dropout(p=0.0, inplace=False)
)),
 ('encoder.layers.encoder_layer_7.mlp.0',
  Linear(in_features=768, out_features=3072, bias=True)),
 ('encoder.layers.encoder_layer_7.mlp.1', GELU(approximate='none')),
 ('encoder.layers.encoder_layer_7.mlp.2', Dropout(p=0.0, inplace=False)),
 ('encoder.layers.encoder_layer_7.mlp.3',
  Linear(in_features=3072, out_features=768, bias=True)),
 ('encoder.layers.encoder_layer_7.mlp.4', Dropout(p=0.0, inplace=False)),
 ('encoder.layers.encoder_layer_8',
  EncoderBlock(
  (ln_1): LayerNorm((768,), eps=1e-06, elementwise_affine=True)
  (self_attention): MultiheadAttention(
    (out_proj): NonDynamicallyQuantizableLinear(in_features=768, out_features=768, bias=True)
  )
  (dropout): Dropout(p=0.0, inplace=False)
  (ln_2): LayerNorm((768,), eps=1e-06, elementwise_affine=True)
  (mlp): MLPBlock(
    (0): Linear(in_features=768, out_features=3072, bias=True)
    (1): GELU(approximate='none')
    (2): Dropout(p=0.0, inplace=False)
    (3): Linear(in_features=3072, out_features=768, bias=True)
    (4): Dropout(p=0.0, inplace=False)
  )
)),
 ('encoder.layers.encoder_layer_8.ln_1',
  LayerNorm((768,), eps=1e-06, elementwise_affine=True)),
 ('encoder.layers.encoder_layer_8.self_attention',
  MultiheadAttention(
  (out_proj): NonDynamicallyQuantizableLinear(in_features=768, out_features=768, bias=True)
)),
 ('encoder.layers.encoder_layer_8.self_attention.out_proj',
  NonDynamicallyQuantizableLinear(in_features=768, out_features=768, bias=True)),
 ('encoder.layers.encoder_layer_8.dropout', Dropout(p=0.0, inplace=False)),
 ('encoder.layers.encoder_layer_8.ln_2',
  LayerNorm((768,), eps=1e-06, elementwise_affine=True)),
 ('encoder.layers.encoder_layer_8.mlp',
  MLPBlock(
  (0): Linear(in_features=768, out_features=3072, bias=True)
  (1): GELU(approximate='none')
  (2): Dropout(p=0.0, inplace=False)
  (3): Linear(in_features=3072, out_features=768, bias=True)
  (4): Dropout(p=0.0, inplace=False)
)),
 ('encoder.layers.encoder_layer_8.mlp.0',
  Linear(in_features=768, out_features=3072, bias=True)),
 ('encoder.layers.encoder_layer_8.mlp.1', GELU(approximate='none')),
 ('encoder.layers.encoder_layer_8.mlp.2', Dropout(p=0.0, inplace=False)),
 ('encoder.layers.encoder_layer_8.mlp.3',
  Linear(in_features=3072, out_features=768, bias=True)),
 ('encoder.layers.encoder_layer_8.mlp.4', Dropout(p=0.0, inplace=False)),
 ('encoder.layers.encoder_layer_9',
  EncoderBlock(
  (ln_1): LayerNorm((768,), eps=1e-06, elementwise_affine=True)
  (self_attention): MultiheadAttention(
    (out_proj): NonDynamicallyQuantizableLinear(in_features=768, out_features=768, bias=True)
  )
  (dropout): Dropout(p=0.0, inplace=False)
  (ln_2): LayerNorm((768,), eps=1e-06, elementwise_affine=True)
  (mlp): MLPBlock(
    (0): Linear(in_features=768, out_features=3072, bias=True)
    (1): GELU(approximate='none')
    (2): Dropout(p=0.0, inplace=False)
    (3): Linear(in_features=3072, out_features=768, bias=True)
    (4): Dropout(p=0.0, inplace=False)
  )
)),
 ('encoder.layers.encoder_layer_9.ln_1',
  LayerNorm((768,), eps=1e-06, elementwise_affine=True)),
 ('encoder.layers.encoder_layer_9.self_attention',
  MultiheadAttention(
  (out_proj): NonDynamicallyQuantizableLinear(in_features=768, out_features=768, bias=True)
)),
 ('encoder.layers.encoder_layer_9.self_attention.out_proj',
  NonDynamicallyQuantizableLinear(in_features=768, out_features=768, bias=True)),
 ('encoder.layers.encoder_layer_9.dropout', Dropout(p=0.0, inplace=False)),
 ('encoder.layers.encoder_layer_9.ln_2',
  LayerNorm((768,), eps=1e-06, elementwise_affine=True)),
 ('encoder.layers.encoder_layer_9.mlp',
  MLPBlock(
  (0): Linear(in_features=768, out_features=3072, bias=True)
  (1): GELU(approximate='none')
  (2): Dropout(p=0.0, inplace=False)
  (3): Linear(in_features=3072, out_features=768, bias=True)
  (4): Dropout(p=0.0, inplace=False)
)),
 ('encoder.layers.encoder_layer_9.mlp.0',
  Linear(in_features=768, out_features=3072, bias=True)),
 ('encoder.layers.encoder_layer_9.mlp.1', GELU(approximate='none')),
 ('encoder.layers.encoder_layer_9.mlp.2', Dropout(p=0.0, inplace=False)),
 ('encoder.layers.encoder_layer_9.mlp.3',
  Linear(in_features=3072, out_features=768, bias=True)),
 ('encoder.layers.encoder_layer_9.mlp.4', Dropout(p=0.0, inplace=False)),
 ('encoder.layers.encoder_layer_10',
  EncoderBlock(
  (ln_1): LayerNorm((768,), eps=1e-06, elementwise_affine=True)
  (self_attention): MultiheadAttention(
    (out_proj): NonDynamicallyQuantizableLinear(in_features=768, out_features=768, bias=True)
  )
  (dropout): Dropout(p=0.0, inplace=False)
  (ln_2): LayerNorm((768,), eps=1e-06, elementwise_affine=True)
  (mlp): MLPBlock(
    (0): Linear(in_features=768, out_features=3072, bias=True)
    (1): GELU(approximate='none')
    (2): Dropout(p=0.0, inplace=False)
    (3): Linear(in_features=3072, out_features=768, bias=True)
    (4): Dropout(p=0.0, inplace=False)
  )
)),
 ('encoder.layers.encoder_layer_10.ln_1',
  LayerNorm((768,), eps=1e-06, elementwise_affine=True)),
 ('encoder.layers.encoder_layer_10.self_attention',
  MultiheadAttention(
  (out_proj): NonDynamicallyQuantizableLinear(in_features=768, out_features=768, bias=True)
)),
 ('encoder.layers.encoder_layer_10.self_attention.out_proj',
  NonDynamicallyQuantizableLinear(in_features=768, out_features=768, bias=True)),
 ('encoder.layers.encoder_layer_10.dropout', Dropout(p=0.0, inplace=False)),
 ('encoder.layers.encoder_layer_10.ln_2',
  LayerNorm((768,), eps=1e-06, elementwise_affine=True)),
 ('encoder.layers.encoder_layer_10.mlp',
  MLPBlock(
  (0): Linear(in_features=768, out_features=3072, bias=True)
  (1): GELU(approximate='none')
  (2): Dropout(p=0.0, inplace=False)
  (3): Linear(in_features=3072, out_features=768, bias=True)
  (4): Dropout(p=0.0, inplace=False)
)),
 ('encoder.layers.encoder_layer_10.mlp.0',
  Linear(in_features=768, out_features=3072, bias=True)),
 ('encoder.layers.encoder_layer_10.mlp.1', GELU(approximate='none')),
 ('encoder.layers.encoder_layer_10.mlp.2', Dropout(p=0.0, inplace=False)),
 ('encoder.layers.encoder_layer_10.mlp.3',
  Linear(in_features=3072, out_features=768, bias=True)),
 ('encoder.layers.encoder_layer_10.mlp.4', Dropout(p=0.0, inplace=False)),
 ('encoder.layers.encoder_layer_11',
  EncoderBlock(
  (ln_1): LayerNorm((768,), eps=1e-06, elementwise_affine=True)
  (self_attention): MultiheadAttention(
    (out_proj): NonDynamicallyQuantizableLinear(in_features=768, out_features=768, bias=True)
  )
  (dropout): Dropout(p=0.0, inplace=False)
  (ln_2): LayerNorm((768,), eps=1e-06, elementwise_affine=True)
  (mlp): MLPBlock(
    (0): Linear(in_features=768, out_features=3072, bias=True)
    (1): GELU(approximate='none')
    (2): Dropout(p=0.0, inplace=False)
    (3): Linear(in_features=3072, out_features=768, bias=True)
    (4): Dropout(p=0.0, inplace=False)
  )
)),
 ('encoder.layers.encoder_layer_11.ln_1',
  LayerNorm((768,), eps=1e-06, elementwise_affine=True)),
 ('encoder.layers.encoder_layer_11.self_attention',
  MultiheadAttention(
  (out_proj): NonDynamicallyQuantizableLinear(in_features=768, out_features=768, bias=True)
)),
 ('encoder.layers.encoder_layer_11.self_attention.out_proj',
  NonDynamicallyQuantizableLinear(in_features=768, out_features=768, bias=True)),
 ('encoder.layers.encoder_layer_11.dropout', Dropout(p=0.0, inplace=False)),
 ('encoder.layers.encoder_layer_11.ln_2',
  LayerNorm((768,), eps=1e-06, elementwise_affine=True)),
 ('encoder.layers.encoder_layer_11.mlp',
  MLPBlock(
  (0): Linear(in_features=768, out_features=3072, bias=True)
  (1): GELU(approximate='none')
  (2): Dropout(p=0.0, inplace=False)
  (3): Linear(in_features=3072, out_features=768, bias=True)
  (4): Dropout(p=0.0, inplace=False)
)),
 ('encoder.layers.encoder_layer_11.mlp.0',
  Linear(in_features=768, out_features=3072, bias=True)),
 ('encoder.layers.encoder_layer_11.mlp.1', GELU(approximate='none')),
 ('encoder.layers.encoder_layer_11.mlp.2', Dropout(p=0.0, inplace=False)),
 ('encoder.layers.encoder_layer_11.mlp.3',
  Linear(in_features=3072, out_features=768, bias=True)),
 ('encoder.layers.encoder_layer_11.mlp.4', Dropout(p=0.0, inplace=False)),
 ('encoder.ln', LayerNorm((768,), eps=1e-06, elementwise_affine=True)),
 ('heads',
  Sequential(
  (head): Linear(in_features=768, out_features=1000, bias=True)
)),
 ('heads.head', Linear(in_features=768, out_features=1000, bias=True))]
