…
Files already downloaded and verified
Loaded model from ./pre-trained-models/vgg19_bn_seed_4_lr_0.01_wd_0.0001_epochs_200.pth
Loaded model from ./pre-trained-models/vgg19_bn_seed_4_lr_0.01_wd_0.0001_epochs_200.pth
Models will be saved in: ./modelos/vgg19_bn_lr0.01_epochs200_2024-10-18_07-22-44

Training vgg19_bn with initial learning rate 0.01 and weight decay 0.0001

Model Summary:
----------------------------------------------------------------
        Layer (type)               Output Shape         Param #
================================================================
            Conv2d-1           [-1, 64, 32, 32]           1,792
       BatchNorm2d-2           [-1, 64, 32, 32]             128
              ReLU-3           [-1, 64, 32, 32]               0
            Conv2d-4           [-1, 64, 32, 32]          36,928
       BatchNorm2d-5           [-1, 64, 32, 32]             128
              ReLU-6           [-1, 64, 32, 32]               0
         MaxPool2d-7           [-1, 64, 16, 16]               0
            Conv2d-8          [-1, 128, 16, 16]          73,856
       BatchNorm2d-9          [-1, 128, 16, 16]             256
             ReLU-10          [-1, 128, 16, 16]               0
           Conv2d-11          [-1, 128, 16, 16]         147,584
      BatchNorm2d-12          [-1, 128, 16, 16]             256
             ReLU-13          [-1, 128, 16, 16]               0
        MaxPool2d-14            [-1, 128, 8, 8]               0
           Conv2d-15            [-1, 256, 8, 8]         295,168
      BatchNorm2d-16            [-1, 256, 8, 8]             512
             ReLU-17            [-1, 256, 8, 8]               0
           Conv2d-18            [-1, 256, 8, 8]         590,080
      BatchNorm2d-19            [-1, 256, 8, 8]             512
             ReLU-20            [-1, 256, 8, 8]               0
           Conv2d-21            [-1, 256, 8, 8]         590,080
      BatchNorm2d-22            [-1, 256, 8, 8]             512
             ReLU-23            [-1, 256, 8, 8]               0
           Conv2d-24            [-1, 256, 8, 8]         590,080
      BatchNorm2d-25            [-1, 256, 8, 8]             512
             ReLU-26            [-1, 256, 8, 8]               0
        MaxPool2d-27            [-1, 256, 4, 4]               0
           Conv2d-28            [-1, 512, 4, 4]       1,180,160
      BatchNorm2d-29            [-1, 512, 4, 4]           1,024
             ReLU-30            [-1, 512, 4, 4]               0
           Conv2d-31            [-1, 512, 4, 4]       2,359,808
      BatchNorm2d-32            [-1, 512, 4, 4]           1,024
             ReLU-33            [-1, 512, 4, 4]               0
           Conv2d-34            [-1, 512, 4, 4]       2,359,808
      BatchNorm2d-35            [-1, 512, 4, 4]           1,024
             ReLU-36            [-1, 512, 4, 4]               0
           Conv2d-37            [-1, 512, 4, 4]       2,359,808
      BatchNorm2d-38            [-1, 512, 4, 4]           1,024
             ReLU-39            [-1, 512, 4, 4]               0
        MaxPool2d-40            [-1, 512, 2, 2]               0
           Conv2d-41            [-1, 512, 2, 2]       2,359,808
      BatchNorm2d-42            [-1, 512, 2, 2]           1,024
             ReLU-43            [-1, 512, 2, 2]               0
           Conv2d-44            [-1, 512, 2, 2]       2,359,808
      BatchNorm2d-45            [-1, 512, 2, 2]           1,024
             ReLU-46            [-1, 512, 2, 2]               0
           Conv2d-47            [-1, 512, 2, 2]       2,359,808
      BatchNorm2d-48            [-1, 512, 2, 2]           1,024
             ReLU-49            [-1, 512, 2, 2]               0
           Conv2d-50            [-1, 512, 2, 2]       2,359,808
      BatchNorm2d-51            [-1, 512, 2, 2]           1,024
             ReLU-52            [-1, 512, 2, 2]               0
        MaxPool2d-53            [-1, 512, 1, 1]               0
AdaptiveAvgPool2d-54            [-1, 512, 7, 7]               0
           Linear-55                 [-1, 4096]     102,764,544
             ReLU-56                 [-1, 4096]               0
          Dropout-57                 [-1, 4096]               0
           Linear-58                 [-1, 4096]      16,781,312
             ReLU-59                 [-1, 4096]               0
          Dropout-60                 [-1, 4096]               0
           Linear-61                   [-1, 10]          40,970
              VGG-62                   [-1, 10]               0
================================================================
Total params: 139,622,218
Trainable params: 139,622,218
Non-trainable params: 0
----------------------------------------------------------------
Input size (MB): 0.01
Forward/backward pass size (MB): 7.55
Params size (MB): 532.62
Estimated Total Size (MB): 540.18
----------------------------------------------------------------

[('f
…
