…
Files already downloaded and verified
Loaded model from ./pre-trained-models/vgg16_bn_seed_5_lr_0.01_wd_0.0001_epochs_200.pth
Loaded model from ./pre-trained-models/vgg16_bn_seed_5_lr_0.01_wd_0.0001_epochs_200.pth
Models will be saved in: ./modelos/vgg16_bn_lr0.01_epochs200_2024-10-18_03-48-30

Training vgg16_bn with initial learning rate 0.01 and weight decay 0.0001

Model Summary:
----------------------------------------------------------------
        Layer (type)               Output Shape         Param #
================================================================
            Conv2d-1           [-1, 64, 32, 32]           1,792
       BatchNorm2d-2           [-1, 64, 32, 32]             128
              ReLU-3           [-1, 64, 32, 32]               0
            Conv2d-4           [-1, 64, 32, 32]          36,928
       BatchNorm2d-5           [-1, 64, 32, 32]             128
              ReLU-6           [-1, 64, 32, 32]               0
         MaxPool2d-7           [-1, 64, 16, 16]               0
            Conv2d-8          [-1, 128, 16, 16]          73,856
       BatchNorm2d-9          [-1, 128, 16, 16]             256
             ReLU-10          [-1, 128, 16, 16]               0
           Conv2d-11          [-1, 128, 16, 16]         147,584
      BatchNorm2d-12          [-1, 128, 16, 16]             256
             ReLU-13          [-1, 128, 16, 16]               0
        MaxPool2d-14            [-1, 128, 8, 8]               0
           Conv2d-15            [-1, 256, 8, 8]         295,168
      BatchNorm2d-16            [-1, 256, 8, 8]             512
             ReLU-17            [-1, 256, 8, 8]               0
           Conv2d-18            [-1, 256, 8, 8]         590,080
      BatchNorm2d-19            [-1, 256, 8, 8]             512
             ReLU-20            [-1, 256, 8, 8]               0
           Conv2d-21            [-1, 256, 8, 8]         590,080
      BatchNorm2d-22            [-1, 256, 8, 8]             512
             ReLU-23            [-1, 256, 8, 8]               0
        MaxPool2d-24            [-1, 256, 4, 4]               0
           Conv2d-25            [-1, 512, 4, 4]       1,180,160
      BatchNorm2d-26            [-1, 512, 4, 4]           1,024
             ReLU-27            [-1, 512, 4, 4]               0
           Conv2d-28            [-1, 512, 4, 4]       2,359,808
      BatchNorm2d-29            [-1, 512, 4, 4]           1,024
             ReLU-30            [-1, 512, 4, 4]               0
           Conv2d-31            [-1, 512, 4, 4]       2,359,808
      BatchNorm2d-32            [-1, 512, 4, 4]           1,024
             ReLU-33            [-1, 512, 4, 4]               0
        MaxPool2d-34            [-1, 512, 2, 2]               0
           Conv2d-35            [-1, 512, 2, 2]       2,359,808
      BatchNorm2d-36            [-1, 512, 2, 2]           1,024
             ReLU-37            [-1, 512, 2, 2]               0
           Conv2d-38            [-1, 512, 2, 2]       2,359,808
      BatchNorm2d-39            [-1, 512, 2, 2]           1,024
             ReLU-40            [-1, 512, 2, 2]               0
           Conv2d-41            [-1, 512, 2, 2]       2,359,808
      BatchNorm2d-42            [-1, 512, 2, 2]           1,024
             ReLU-43            [-1, 512, 2, 2]               0
        MaxPool2d-44            [-1, 512, 1, 1]               0
AdaptiveAvgPool2d-45            [-1, 512, 7, 7]               0
           Linear-46                 [-1, 4096]     102,764,544
             ReLU-47                 [-1, 4096]               0
          Dropout-48                 [-1, 4096]               0
           Linear-49                 [-1, 4096]      16,781,312
             ReLU-50                 [-1, 4096]               0
          Dropout-51                 [-1, 4096]               0
           Linear-52                   [-1, 10]          40,970
              VGG-53                   [-1, 10]               0
================================================================
Total params: 134,309,962
Trainable params: 134,309,962
Non-trainable params: 0
----------------------------------------------------------------
Input size (MB): 0.01
Forward/backward pass size (MB): 6.95
Params size (MB): 512.35
Estimated Total Size (MB): 519.31
----------------------------------------------------------------

[('f
…
